GITomo-Net/Model_save/GITomo-Simdata-Trained-model/GITomo_Net_trained_modelpara.pt (torch, 333391 bytes, 45 tensors)

gammas f4 [31, 1, 1, 1]
00000000: a589 743f 8e84 1a40 1db6 433f 2cb7 0240
00000010: 8f15 e03f 2c41 db3f e2a0 1940 3728 d73f
00000020: 11ac 1840 42d7 c33f 19ae 1940 cc48 a83f
00000030: 2448 0f40 d419 623f 3553 db3f 0c7a 583f
00000040: b08e b33f a791 a63f 34b1 d73f ed0a 9e3f
00000050: 0539 b63f 1b84 b93f f4b7 ad3f 4b68 c33f
00000060: c944 c23f d160 b73f 88b9 eb3f e05a 2b40
00000070: bb2f b440 503e 3d40 16e0 d841
0.9552253 2.4143405 0.7644976 2.04243 1.7506579 1.7129264 2.4004445 1.6809148
2.385502 1.5300066 2.401251 1.3147216 2.238778 0.8832066 1.7134768 0.8456123
1.402792 1.30132 1.6850953 1.2347084 1.4236151 1.449344 1.3571763 1.5266203
1.5177242 1.4326421 1.8415995 2.6774216 5.6308265 2.9569283 27.109417

W1.weight f4 [40, 40]
00000000: c827 a33f f571 c6bd 3eee b5bb 156f ebbb
00000010: 1964 86bc 6863 87bb 426e 95bb f4f5 ebbb
00000020: a8e8 c93a 6b8a 7d3c 497f d73b 9ca1 a7bb
00000030: 2e86 da3b 2e53 d33b 96ca d3bb ce04 d53c
00000040: 37df c33b f821 f53b 06b8 213c 07a7 7bba
00000050: e0e1 46bb f995 1a3d 8829 3d3c d3c0 803b
00000060: 42b5 73bc 374e 553c dc83 0abc fe67 f33c
00000070: eb59 973b 4c82 653c 738c 023c 68c4 fe3b
00000080: 7b50 c23a 7be0 da3b e5f1 09bc e2ce 88bb
00000090: f808 28bb cf3c cf3b 5b7f 0f3b 56b6 bcbb
000000a0: 524a 51bd 4d04 af3f 5c67 97bd ee5a f63b
000000b0: 2d21 5cbc 62a1 953c e3a0 63bc 24c8 17bc
000000c0: 50fb 8abb ef5e 19bc bd4f 733a bf1b 2e3c
000000d0: 6899 9cbc 0064 943c 1c49 dabb 45bf 94b9
000000e0: 574e aebb b795 143c fbf4 1ebc 2518 5fbb
000000f0: 97b1 79bc bf97 83bc eacc 903c 2b99 d13b
00000100: 5505 a7ba e788 443c 132d 25bc a6a3 22bc
00000110: 3f7e 9bbc 7b6d 2abc e3c6 e0bb cc76 5b3a
00000120: 2d96 e9ba 3dfa b83b 142b 54ba d7de 9cbc
00000130: 48a9 5a3c 9b88 283c 4440 e53b 2094 173c
00000140: fb66 a43b 998f 15bd 0bd4 b73f 9e7f a5bd
00000150: 39d8 013b cc39 9cbc f026 eabb 208c 603c
00000160: 52cb 6dbb 2adc bb3b 98d9 583c 1d26 cbbb
00000170: 0ba7 433c e514 f9bb 3be1 34bb 3d37 35ba
00000180: 288c 703c 1db7 c3ba 7a2b e3ba fdf3 06bc
00000190: 5e74 56bb 4ae9 eabb 13b1 ecba 6e83 7d3c
000001a0: fef2 d93c a4b2 823b 022d 60bc 4bdd fc3b
000001b0: 4891 9fbb 06ed d43a dbe9 343c 92bb 3cbb
000001c0: e485 633b 1de5 cd3c 5e1e 593c 05b4 203c
000001d0: 503b e8bb 78c4 533a 2a90 0bbc acf8 7ebc
000001e0: 4b6f 013c 4459 3d3c db1d 1bbd 928c bf3f
000001f0: 94dd 46bd 819d 22bc 2fc8 a7bb 5c55 67bc
00000200: 032f 61bc d555 dbbb bc92 aa3b 8653 8b3b
00000210: 52d6 b43a 109c c2bb 8941 6b3c 99f4 12bc
00000220: 6c7f 6dbc 1234 cf39 a104 95bc 940b 59bb
00000230: ed16 9e3b 8d60 a5bc 1e2f 803c b597 bebc
00000240: 516e 373c b75f 483c a51e d93b 33ea 3f3c
00000250: 756c 033c b297 c1bb 7fd0 893c 2f8c 9b3b
00000260: c0c6 3ebb 67e3 6c3c f40d d9ba 7604 453a
00000270: f3df 10ba 365f 8eb9 7c9a 083c 7339 fe3b
00000280: f575 083a a048 4ebc cdca 943b 9926 44bc
00000290: b225 c53f a185 21bd fb5b a6bc cef2 bdbc
000002a0: 5ee7 13bb a84a 293d 3f4f 92bc 08ff a3bb
000002b0: e508 223c 2e24 413a 4950 0e3c a397 86bc
000002c0: 344b 423c e123 66bc c4d1 8c3b f06d b63b
000002d0: 2430 c1bb 4b64 103b d98d 18bd 35d8 153a
000002e0: cf72 74bc 951b 99bc 0583 123d 0979 5cbc
000002f0: 41bd 643c 16ff e5bb ed48 69bb a811 fe3b
00000300: 8aca 46bc 27cf cfbc 27b5 4b3c 113b e6ba
00000310: c271 bcbb e504 33bc c12c 06ba dc45 a5ba
00000320: 0e4f 51bc 6732 fcbb 0593 8cbc e702 beba
00000330: 2121 1fbc 9131 c83f 73fc 9fbc 8e0c 8fbb
00000340: d9de 57bc 8ece 9cbb 5277 c73b 7715 453c
00000350: 0887 843c 00e7 c53b dfaa a2bc c9c8 47bb
00000360: fd87 513c 1589 57bc ff50 8e3a e5b3 e4bb
00000370: ce17 7a3a a9ec 5fbc 0ed2 8f3c 8919 00bd
00000380: 955b 743c 17bb bdbb 1647 213b ccf8 203c
00000390: 6301 c9bb 736a 1a3b 2386 073c 3744 233c
000003a0: 6a87 613c d526 3ebc 22f5 c1bb 56e2 2dbc
000003b0: 670c 0a3a 5302 dbbb 2302 f93a 0a31 d3bb
000003c0: 1d30 18bc 52b9 48bc 1d0d a3bb 45e6 20bc
000003d0: 3f0f 17bc fd8c 3d3b 655e ca3f 9269 a0bc
000003e0: b302 9ebb 4fd3 a23b 5767 403b 4d66 2fbc
000003f0: cea9 10bc bdd2 993c 22db 4f3c a2fe 1cbc
1.2746515 -0.09689704 -0.0055520823 -0.007184873 -0.016405152 -0.004131723 -0.004560263 -0.0072009508
0.001540442 0.015474896 0.006576453 -0.005115701 0.0066688275 0.006449125 -0.006463359 0.026003268
0.005977537 0.007480856 0.009870535 -0.0009599779 -0.0030347034 0.03774068 0.011545546 0.0039292364
-0.014874758 0.013019136 -0.008454289 0.029712673 0.0046188734 0.014008116 0.007968056 0.0077748783
0.001482501 0.006679592 -0.008419489 -0.004175053 -0.0025640111 0.0063243876 0.0021895978 -0.005759041
-0.051096268 1.3673187 -0.07392761 0.007518164 -0.013435644 0.01826543 -0.013893339 -0.009264026
-0.0042413846 -0.009361013 0.0009281596 0.010626732 -0.019116119 0.01811409 -0.0066615473 -0.00028371267
-0.0053193974 0.009068898 -0.009701963 -0.003404149 -0.015240095 -0.01606357 0.017675836 0.006396433
-0.0012742678 0.011995531 -0.010081547 -0.009926712 -0.018981097 -0.010402079 -0.0068596466 0.0008371889
-0.0017821245 0.005645065 -0.00080935773 -0.019149227 0.013346024 0.0102864755 0.0069961865 0.009251624
0.005017159 -0.0365139 1.4361585 -0.08080982 0.0019812717 -0.019070528 -0.007145755 0.013705283
-0.0036284518 0.0057330327 0.013235472 -0.006199612 0.011941682 -0.007601368 -0.0027600068 -0.0006912833
0.014681853 -0.0014931891 -0.0017331683 -0.008236882 -0.003272317 -0.0071689235 -0.0018058143 0.01547323
0.026605126 0.003988581 -0.013682606 0.00771681 -0.004869614 0.0016244955 0.011042084 -0.0028798324
0.0034717256 0.025133664 0.013251869 0.009808545 -0.0070871487 0.00080782874 -0.008518258 -0.015562218
0.0079000695 0.011556927 -0.03787027 1.4964774 -0.048551157 -0.009925247 -0.0051202993 -0.014119472
-0.013744119 -0.0066935816 0.0052054804 0.0042519 0.0013796783 -0.0059390143 0.0143588865 -0.008969449
-0.014495712 0.00039520912 -0.018190684 -0.0033118473 0.0048245103 -0.02018764 0.015647467 -0.023265699
0.011195735 0.012229851 0.0066259676 0.011713552 0.008021464 -0.005907976 0.016823051 0.004746936
-0.0029110163 0.014458514 -0.0016559944 0.00075156183 -0.0005526535 -0.00027155288 0.008337613 0.0077583133
0.0005205565 -0.012590557 0.0045407773 -0.011972093 1.5402129 -0.03943408 -0.020307532 -0.023187067
-0.0022568326 0.041330963 -0.017860053 -0.0050047673 0.009889816 0.0007367757 0.008686134 -0.016429728
0.01185875 -0.01404664 0.004297467 0.005567305 -0.0058956314 0.0022032436 -0.03724465 0.0005716116
-0.014919951 -0.01868991 0.03576948 -0.013456591 0.013961137 -0.007018934 -0.0035596446 0.0077535696
-0.01213325 -0.025367333 0.012433327 -0.0017565211 -0.0057508657 -0.01092646 -0.0005118363 -0.0012609321
-0.012775196 -0.007696438 -0.017159948 -0.0014496715 -0.009712488 1.5640126 -0.019529557 -0.0043655103
-0.01317569 -0.0047853654 0.006087222 0.012029043 0.01617767 0.0060395002 -0.019856868 -0.0030484668
0.01278877 -0.0131552415 0.0010857879 -0.006979453 0.00095402903 -0.013667264 0.017556217 -0.031274352
0.014914413 -0.005790125 0.002460902 0.009824943 -0.0061341985 0.0023561984 0.008271727 0.009964994
0.013765195 -0.011605938 -0.0059191147 -0.010613045 0.00052661303 -0.0066836267 0.0018997829 -0.006445055
-0.009288815 -0.012251215 -0.0049759285 -0.009820526 -0.009219944 0.0028923147 1.5810057 -0.01958159
-0.004822099 0.0049690376 0.002935847 -0.010705543 -0.008829547 0.018777246 0.012686523 -0.009582194

W2.weight f4 [40, 40]
00000000: b067 923f 2e5e 80bb 1b4c b53b cc59 173b
00000010: fdcd 91ba fef6 82ba ffa7 90bb 777c 053b
00000020: 9926 c23b 901a 343c 7212 ed3a 6814 963b
00000030: a14f 4bba 5ef6 003b 1165 7f3a 19be 283c
00000040: 6951 4dbb 98f4 b939 545e 563c 8a11 91bb
00000050: f1c2 18ba e00e 7dba ff58 a33b 4e2c fbbb
00000060: afef 083a 88b8 093b d11b 8c3a 55ca b63b
00000070: 12f0 943b 8b38 47ba af4f fc3b a750 343a
00000080: 4a83 6b3a 7a75 8a3b 4d33 35ba 6b1a 9cba
00000090: 3220 b3ba 66ef 3bba 64e9 833a b3c2 f539
000000a0: 4e72 14ba 5a2b 923f d398 17ba 735c 143c
000000b0: b687 d1ba 4135 fdba 4173 adbb 4fde a3bb
000000c0: 0e92 7cba 4aa1 d539 6ac8 2c3b cb2f 77bb
000000d0: 3bbd a13b b8f9 9a3b ddc5 9bbb 0cd5 193b
000000e0: aa3d 23bb 6740 803b 16ba 7cbb 02b4 ea3b
000000f0: 95aa b63a 3f43 1e3a d0b7 0dbc 2c58 c23b
00000100: b088 d9ba 4469 8a3b 126e dc3a 36d8 b5ba
00000110: 8fc9 89bb 2fec a73b 9a3e 20ba 9f72 9dba
00000120: 031c d3ba d65b 263c b3a0 e3bb 162f 9abb
00000130: 4338 32bb c333 a13b 8aa1 b4ba 0228 173b
00000140: 4d5f 903b 9d3f 653a f02e 923f 2623 34ba
00000150: acd6 fe3b 6c55 02bb 5970 75ba 09dd 803b
00000160: 4c57 f2ba 340f 0b3b 7ebb 753b a8b8 973a
00000170: c404 89b9 885a a1bb 35ca cdba d335 b2ba
00000180: 6772 603b 9aab 703a fbb1 abbb f4a4 383b
00000190: fcf5 99bb 9119 0a3c 6e81 3739 6181 a0bb
000001a0: eeb3 663b 8d10 09bb 5246 cebb 9cd7 243a
000001b0: 44db bfb9 7e60 54bb 4836 1f3a 3611 0cbc
000001c0: b25e 73bb 388d 863b e58a a83a 37f9 98bb
000001d0: ea42 f53b 8572 7abb 4f03 053a 1245 78bb
000001e0: 82dd 1a3a 8601 123c afb8 173a 9118 923f
000001f0: 6b77 533b a54a db3b 29be 7bb8 b766 2d3b
00000200: e455 c3b9 d565 573b 5378 943b 7091 0ebb
00000210: f84c f7ba 0450 22ba 5141 4d3b 025a 1dbb
00000220: c062 71bb 7c15 c1ba b975 65bb 1aca 2bbb
00000230: 9467 423b ad4a f0bb 9fbd c93b 1afc 09ba
00000240: 9133 f9ba 7a82 8a3b bdda d5b8 fe70 3c39
00000250: f639 8cbb 223e 42b9 c48f c43b 93e0 de3a
00000260: 8fb3 253b 7935 813a 5b1d ee39 806a d73a
00000270: 533d 0ebb d926 f33a 6e0e 413b 2a19 b73a
00000280: c7fc 0fbb 1bd0 32bb 0ca4 e03b c43b 5f3b
00000290: dcf9 913f 4282 0e3b 8eae f6ba 0758 29bb
000002a0: 21c6 df3a 8844 753c 931e 4fbc 4443 5939
000002b0: f63b f63b adbd 37bb 886f 7a3b 5cb7 b0bb
000002c0: e14f 393b b2d1 97bb efd8 8e3b 2237 0b3b
000002d0: 35d8 76ba 8f41 363b e150 c0bb 12c6 da3a
000002e0: c069 023a 99bb f3bb bf33 353c d914 a5bb
000002f0: f251 8c3b 0fb7 183b 2a09 9b3a 2aa1 a2ba
00000300: 9ae2 b7ba e153 64bb 0851 6d3a 2ad1 1ab8
00000310: 2feb 40bb 1c42 52bb 7306 ef38 a359 a638
00000320: c93e 88ba 2314 21bb 5f8b 29bb a384 dc3b
00000330: d4d2 fb3a adf9 913f 11e3 bf3b 7879 2ebb
00000340: aa5e 46bb 144e 5ebb a4f3 883a 855a 003c
00000350: 7252 81bb b446 dc3a 109e e6ba 5f27 fa3a
00000360: 67a0 a1b9 070a cd3a ad9e 193b 4ab4 2dba
00000370: 588b 8b3a ecf8 9b3a bb9a 283b 5907 d7bb
00000380: 6211 ab3b f8b4 7bb9 058a 0abc 12d2 a03a
00000390: cc97 92ba 4cbe ebb9 f257 bbb9 ee86 fb3b
000003a0: 4c22 fd3a ad3a 5bbb 8429 e4b9 5bc9 2db9
000003b0: 17c8 8f3b 52d2 deba 2d53 943a c251 85ba
000003c0: 7895 a1bb 0e5d a9bb 1ee4 a0ba 20b9 d1b9
000003d0: 971b f1ba 1acb b33b e085 913f fcd7 243c
000003e0: d7c4 0d3b 1e42 b83b 19a1 13bb cb99 b5bb
000003f0: 31dd 05ba 4c22 1a3b 5bd1 9c3b 6f79 cebb
1.1437893 -0.003917477 0.005532754 0.0023094295 -0.0011124011 -0.0009991822 -0.004414558 0.0020368376
0.0059250114 0.010992661 0.0018087162 0.0045800693 -0.0007755701 0.0019678096 0.0009742538 0.010299229
-0.0031329042 0.00035468186 0.013084013 -0.0044271396 -0.00058273884 -0.00096534006 0.0049849744 -0.0076651936
0.0005223704 0.002101453 0.0010689442 0.005578319 0.00454522 -0.0007599673 0.0076999287 0.0006878473
0.0008984102 0.00422543 -0.00069122465 -0.0011909729 -0.0013666211 -0.0007169157 0.0010064063 0.00046875104
-0.00056627847 1.141948 -0.00057829655 0.009055245 -0.001598588 -0.0019318239 -0.0052932804 -0.0050008665
-0.0009634801 0.00040746696 0.0026364573 -0.0037717696 0.004935888 0.004729476 -0.0047538118 0.0023472933
-0.002490858 0.0039139274 -0.0038563064 0.007162572 0.0013936335 0.0006037242 -0.008649781 0.005930921
-0.0016596522 0.0042239744 0.0016817471 -0.001387364 -0.004204936 0.005124591 -0.0006112844 -0.0012012309
-0.0016106371 0.010153731 -0.006946647 -0.00470532 -0.002719418 0.0049195006 -0.0013781053 0.0023064618
0.004405892 0.0008745136 1.1420574 -0.00068716926 0.0077770557 -0.0019887341 -0.00093627494 0.0039325994
-0.0018489151 0.0021218779 0.0037495787 0.0011575418 -0.00026134227 -0.0049241222 -0.0015700521 -0.0013596363
0.0034247877 0.0009180844 -0.005239723 0.0028174492 -0.004698513 0.008428947 0.00017500456 -0.0048982357
0.0035202461 -0.0020914406 -0.006295004 0.0006288232 -0.00036593725 -0.0032406147 0.0006073457 -0.008549025
-0.00371353 0.00410619 0.0012858777 -0.0046683806 0.0074847834 -0.0038215232 0.00050740404 -0.0037882966
0.0005907641 0.008911496 0.0005787713 1.1413747 0.0032267224 0.006692248 -6.0020164e-05 0.0026458928
-0.00037257292 0.0032867093 0.0045309453 -0.0021754168 -0.0018867543 -0.0006191733 0.003131945 -0.0024009948
-0.0036832541 -0.0014731134 -0.0035012795 -0.0026212991 0.0029663788 -0.007333121 0.006156638 -0.00052637013
-0.001901256 0.00422698 -0.00010197375 0.0001797117 -0.0042793704 -0.00018524428 0.0059985835 0.0017004184
0.0025284027 0.0009857855 0.0004541677 0.0016434938 -0.0021704033 0.0018551006 0.0029458064 0.0013969291
-0.0021970735 -0.0027284685 0.0068554934 0.0034062723 1.1404376 0.002174512 -0.0018820332 -0.0025839822
0.0017072597 0.014969952 -0.012641567 0.00020719791 0.007514472 -0.002803664 0.003821345 -0.005392952
0.0028276371 -0.004633152 0.0043593566 0.0021242579 -0.00094163726 0.0027810072 -0.0058690165 0.001669111
0.00049748644 -0.007438135 0.0110597005 -0.0050378856 0.0042822296 0.002330247 0.0011828293 -0.001240765
-0.0014029325 -0.0034840035 0.0009052907 -3.691126e-05 -0.0029437055 -0.0032082861 0.00011397609 7.932193e-05
-0.0010394688 -0.0024578653 -0.0025870425 0.0067296787 0.0019212612 1.140432 0.005855926 -0.0026622694
-0.0030268827 -0.003392105 0.0010448587 0.007834082 -0.003946596 0.0016805739 -0.0017594714 0.001908522
-0.00030827822 0.0015643247 0.0023440525 -0.00066262914 0.0010646386 0.0011899746 0.0025726992 -0.006562155
0.005220578 -0.00024004641 -0.008455758 0.0012269637 -0.0011184155 -0.00044964475 -0.00035732944 0.007675997
0.001931259 -0.0033451722 -0.0004351848 -0.00016573576 0.0043878662 -0.0016999936 0.0011316292 -0.001017146
-0.004931148 -0.0051685637 -0.0012275015 -0.00040001515 -0.0018395063 0.005486858 1.136898 0.01006126
0.0021632218 0.005623116 -0.0022526442 -0.005542015 -0.00051065075 0.0023518978 0.0047856993 -0.006301097

bn1.weight f4 [86]
00000000: 54a7 9a3f 1415 863f 4967 8b3f 2616 8e3f
00000010: bf06 923f 7234 913f d717 973f 6db2 983f
00000020: 5052 873f 60d0 913f fe9b a33f 9170 8e3f
00000030: c879 9f3f b4cc 903f 487a 9f3f 67ba 993f
00000040: 4a38 943f 6955 9e3f a7a8 943f 26d9 a83f
00000050: 1052 8f3f f755 a93f a39e 9e3f 9a8b 973f
00000060: 5be0 a93f a96b 993f 8727 a73f 0d4b a83f
00000070: db19 a33f 989b a53f 8cf8 a03f f63a 9f3f
00000080: 2283 ac3f da5c 9b3f 9834 a83f c1b7 973f
00000090: fbe7 a33f 51d8 943f e213 a23f 86d7 913f
000000a0: 6101 9f3f 172f 933f 2699 9e3f 82ac 8f3f
000000b0: 1f1d 9a3f fa0a 9c3f f80d 9e3f 278a 9a3f
000000c0: 5830 a33f ffa2 943f c468 9d3f cfce 893f
000000d0: 33ea a53f 8ac8 8b3f ff80 9e3f e62b 8c3f
000000e0: 8dc9 943f 9f50 993f c119 923f 270a a33f
000000f0: 3cd8 933f e163 a33f 84f9 8b3f 8e85 913f
00000100: 25be a53f f3b7 923f 8a52 993f 659e 9b3f
00000110: c15e 943f 5b04 953f 793e 903f 37f7 9e3f
00000120: 0faf 933f b02f 9f3f 41cc 873f 7112 923f
00000130: f217 8f3f e0fd 953f 5fd8 943f e92f 883f
00000140: 10b8 9a3f 8262 913f 7241 8b3f c10c 8f3f
00000150: 4b7b 8a3f 6e68 8f3f
1.2082314 1.0475183 1.0890895 1.1100509 1.1408309 1.134413 1.180415 1.1929451
1.0571995 1.1391716 1.278198 1.1128103 1.245904 1.131247 1.2459192 1.201001
1.1579678 1.2369815 1.1613969 1.3191268 1.1196918 1.3229359 1.2392162 1.1839478
1.3271593 1.198598 1.3058938 1.3147904 1.2742265 1.2938108 1.257585 1.2439868
1.3477519 1.2137711 1.314105 1.1852952 1.280517 1.1628515 1.2662318 1.1393898
1.2422296 1.1498746 1.2390487 1.122452 1.2040137 1.219085 1.2348013 1.2073411
1.2749128 1.1612242 1.2297597 1.0766238 1.2962097 1.0920575 1.2383116 1.0950897
1.1624008 1.1977729 1.141411 1.2737473 1.1550364 1.2764856 1.0935521 1.1368883
1.2948653 1.1462387 1.1978314 1.2157713 1.1591417 1.1641954 1.1269065 1.2419194
1.1537799 1.2436428 1.0609208 1.1411878 1.1179183 1.1718102 1.1628531 1.0639621
1.2087421 1.1358187 1.0879347 1.1175767 1.0818876 1.1203744

bn1.bias f4 [86]
00000000: a5b1 803c 82d2 75ba 2818 613a 0867 5a3c
00000010: 38ab 7fbb 5f0d 5f3b e6c2 9dba 1283 d83c
00000020: 1882 0f3d a717 03bd 8ef0 1b3d 6e7b 5abc
00000030: f1db 303c 8dc7 c8bc 48ff 283c d6e4 00bd
00000040: d031 fd3c e0a7 223c 2984 0d3d 2f82 32bc
00000050: 36b1 f23c 2fa4 3cba a6b2 c33c 123c ea3c
00000060: 2439 f6bb ac90 24bd f1de 2f3d a0d2 8039
00000070: 1448 88bc 8833 263b e8e5 ad3b c784 f6bc
00000080: 9e80 9abb 5ac6 ac3c c3f2 57bb ef9e bb3c
00000090: fa13 a8bc fac1 19bb 2d77 283c 417f 9bbc
000000a0: e527 4f3c 9c9a 43bd 0e73 c13a 0616 83bb
000000b0: b390 e33b 8fba 1bbc 3daf c03c eae1 363d
000000c0: 9763 f6bb 47d6 a4bb a323 dcbb 03a1 ac3c
000000d0: aab9 403b 070c 91bc 4407 953a 547e 80bc
000000e0: 6888 f13c 567b 47bc ece5 dabb 5921 723a
000000f0: a87b 913c d027 8dbb 99e2 9cbc 92a9 d23c
00000100: 7970 88bb 8dc7 d93c a64b 963c 1966 09bb
00000110: 8271 643c 4789 61bc 72da a73c a6fd 133b
00000120: 1b4c 61bc e9c3 7abb 7c60 6c3c 4c80 f33a
00000130: a01f 8b3c 7f7f 81ba 8ffb 883c d4bd ec3c
00000140: d21d 30bb 3536 a3bc 5da4 c93c faad c33a
00000150: 489e 3e3a 993e 143b
0.015709708 -0.00093773764 0.00085866684 0.013330229 -0.0039011966 0.003403507 -0.0012036234 0.026429687
0.035036176 -0.03200498 0.038071208 -0.013335092 0.010794626 -0.024509216 0.01031477 -0.031468235
0.030907542 0.00992772 0.034549866 -0.010895296 0.029625516 -0.0007196096 0.023888897 0.028593097
-0.007514136 -0.040177032 0.042937223 0.0002457099 -0.016635932 0.0025360305 0.005306948 -0.03009261
-0.0047150394 0.021090675 -0.0032951094 0.022902934 -0.020517338 -0.0023461566 0.01028232 -0.018981578
0.012643789 -0.04775487 0.001475902 -0.004000428 0.0069447397 -0.009504928 0.02352106 0.044649042
-0.0075191963 -0.0050304267 -0.0067181154 0.02107287 0.002940754 -0.01770593 0.0011369963 -0.015685238
0.029483989 -0.012175402 -0.006680241 0.00092365366 0.01775916 -0.0043077245 -0.019151019 0.025715623
-0.0041637984 0.026584411 0.018346619 -0.0020965396 0.013943078 -0.01376564 0.020489905 0.0022581606
-0.013751055 -0.0038263744 0.014427301 0.0018577664 0.016982853 -0.0009879916 0.016721515 0.02889911
-0.0026873243 -0.019923309 0.024614507 0.0014929168 0.00072715105 0.002262032

fc1.weight f4 [86, 86]
00000000: 1dff 003d dfc5 c1bd 10c4 19be 9542 6e3b
00000010: e3a1 e73d 1b57 96bd 33d1 57bd 62e7 8fbd
00000020: e6ad dcbd 930a 813d bd13 4c3d 9eff a73c
00000030: 8036 f63c 468d 263c c768 36be f502 4d3d
00000040: 0511 933d a061 e53c 85b2 ce3c 8537 5dbc
00000050: 4e4b 38be e172 323c a2c3 a6bd 8801 623d
00000060: 0bc4 b4bc ac13 f33d e05e 8c3d 562b 9ebd
00000070: 37c0 be3c c6b6 b23c d2d6 6b3d 75be 8e3d
00000080: c03c 23bd aeeb 5f3d 6360 073d 0de4 f2bb
00000090: 50c1 f53c c075 96bd e98e fabd 63da 94bd
000000a0: 6376 33bd 81fc d63c 7274 653d 7caa 46bc
000000b0: d1f4 f3bc 3404 15be 9fe9 03bd 291f 20be
000000c0: d38b 943c 4e99 273b 1557 a8bd 942a 583d
000000d0: 3e82 913d 8acb 813c 54a8 a03d 8685 4e3d
000000e0: 3a41 f2bd e36a fdbd fd8c 91bd 9f2a a1bd
000000f0: 79ff f83c 4ae8 ee3d 5dd4 f13c 9ac1 0fbd
00000100: b342 633d 5305 56bb 252d 2c3e 73c8 d03d
00000110: 3b2f 8d3b 2cbd 58bc 9642 f93c bfef a63d
00000120: b2a3 543a 924a bc3d 8fcf 55bd 34ce d93d
00000130: 4f25 cd3d 30e3 d23d 2d50 1ebd 27c4 13bd
00000140: fb40 b8bd f645 14bc e467 d5bd b45c f63c
00000150: aa11 df3c 78c5 6e3c edb7 803c cb52 ee3c
00000160: 794f 94bb 1435 24bc e07a b03c 1fad bc3d
00000170: 77ab 1dbd bfae f7bd 0403 03be 8483 8f3b
00000180: 2308 afbc 69ff a63d f399 d63b 739f 33bc
00000190: 5fcc ffb8 3501 0d3d ac30 963d 3827 2fbd
000001a0: af84 523d 549c b1bd afcc bd3c b770 92bd
000001b0: 7cfb aebd e480 acbd 5052 223d 71ff 343d
000001c0: ff3d 143d b357 44bd 40f4 9fbd 5695 0cbb
000001d0: fc0e b03d ae16 783c f943 a8bd 65b2 44bd
000001e0: 2d35 97bd 48d1 e53c d928 f73d 5ea9 173d
000001f0: 91eb f1bd 6c6a 19be 06c3 babd b847 bebd
00000200: 4f55 bf3c e4a7 dd3d 01e7 b73d cd1b 03bd
00000210: 6a55 163d ff56 3bbb 4f8a 2cbe 0324 9fbd
00000220: dc1b 0a3d 221b a33c d3c1 923d f3de 7c3c
00000230: 5743 463d 465f cb3d c638 71bd cd9a b5bd
00000240: 839f fbbc d75a 073d cc96 143e 9ef3 ba3d
00000250: 7d56 ddbd 284a 2dbe 140c 1abe dc5e a33d
00000260: 9f71 5ebd 454b 2a3d 372e 4dbd cc35 1ebd
00000270: faf6 7d3d d44b e23b e9d2 943d 4b37 a8bd
00000280: f1d8 b3bd 52f8 aabd 837a 5d3d b433 443d
00000290: da9d 5c3d b584 113d cbab 1f3b 7f04 14bd
000002a0: 4aff 9c3d ac90 603e 3c05 463e 20bb f4bd
000002b0: cad4 d33d c9bd 333c d9ca 40bd db84 38bd
000002c0: eb60 5abd 7eaa 233d d164 193e 6190 4c3d
000002d0: 1d31 d73d 0999 9d3c e22f a43d 9488 373b
000002e0: 3ddf 0a3d ee94 78bc faa6 033c d17b 17be
000002f0: e6c4 46be 3dbb c23c 4c3a 6f3d 8d7e 33bb
00000300: d3b5 ae3d 4e19 4cbd 93aa 4dbe 5f73 07be
00000310: 7724 1cbd 86e8 cc3d 26b6 9f3c 4b15 4cbd
00000320: ed0c abbd af99 d0bd 3e6f a7bd c7d4 9c3d
00000330: b877 f53d d6d0 9c3c ea51 e63c 273e a3bd
00000340: 221a a9bd 7fe2 5fbd 2e36 83bc 874d c93d
00000350: 9d86 0f3d 273b 843c 6d4a 853c c86b 81bc
00000360: a9f6 123e fc90 623e d32e 8c3d 8a54 95bd
00000370: 42d4 80bd 13a4 ce3c 1502 543d 1748 8f3b
00000380: cc9c bf3c 976e 97bd d535 61bd d6c6 843d
00000390: 4b6e 01bd d1e2 00be afaa 86bc 08b2 ab3d
000003a0: 1a66 023d 98f7 febc c033 363d 10dc e6bd
000003b0: 3821 83bd 44e6 d43c 4a06 1e3d a98a b93d
000003c0: 4e15 a83b a8a0 223d 7f88 5a3c 6053 153d
000003d0: ccab 853d f1ab 273d 2003 a5bd 993f db3d
000003e0: c53c fe3d afc3 6cbc 6468 423a 8c23 dcbc
000003f0: dece 103c 320e 9bbd a0fb 72bd daf6 153d
0.031493295 -0.09461569 -0.15016198 0.0036355604 0.11310174 -0.07340833 -0.052689742 -0.07026555
-0.10775356 0.06300845 0.04982351 0.02050763 0.030055285 0.010165518 -0.17813407 0.05005165
0.071809806 0.028000653 0.02523161 -0.013502006 -0.17997476 0.010891647 -0.08142783 0.05517724
-0.022066137 0.118689865 0.068540335 -0.077231094 0.023285015 0.021815669 0.057577915 0.069699205
-0.039852858 0.05466812 0.033050906 -0.0074124397 0.029999405 -0.07346678 -0.12234289 -0.072682165
-0.043814074 0.02624345 0.056019254 -0.012125608 -0.029779823 -0.14552385 -0.03220522 -0.15636887
0.01813308 0.0025573554 -0.082197346 0.05277498 0.0710492 0.015844125 0.07844606 0.050420307
-0.11828847 -0.12373903 -0.071069695 -0.078694575 0.030395256 0.116653994 0.029520208 -0.035096742
0.05548353 -0.0032656982 0.16814096 0.10194483 0.004308609 -0.013228696 0.030427258 0.08151197
0.00081115507 0.09193911 -0.052199896 0.10635033 0.10016882 0.10297239 -0.03865068 -0.036075737
-0.08996769 -0.009049883 -0.10420206 0.030073501 0.027230103 0.014573447 0.015712703 0.029092213
-0.0045260754 -0.01002242 0.021542966 0.09212708 -0.0384936 -0.12093877 -0.12794119 0.0043796916
-0.021366185 0.08154184 0.006549114 -0.010963309 -0.000121974146 0.03442498 0.07333502 -0.04276201
0.05139607 -0.08672395 0.02316889 -0.07150405 -0.085440606 -0.084230214 0.03962928 0.04418892
0.036191937 -0.0479352 -0.07810259 -0.0021451316 0.08596608 0.015142126 -0.0821609 -0.048021693
-0.07383189 0.028053895 0.12068338 0.037026756 -0.11812509 -0.14982003 -0.09119229 -0.09291023
0.023356108 0.10823038 0.089796074 -0.032008935 0.03670255 -0.002858579 -0.16849636 -0.077705406
0.033717975 0.019910399 0.07165875 0.015434015 0.048404064 0.09930281 -0.058892034 -0.088674165
-0.03071571 0.033045616 0.1451065 0.091284975 -0.10807512 -0.1692282 -0.1504367 0.07977077
-0.054307576 0.04157569 -0.050092902 -0.038625523 0.062003113 0.006906012 0.072667904 -0.08213671
-0.08781613 -0.083481446 0.054071914 0.04790087 0.053861476 0.03552695 0.0024363871 -0.0361371
0.0766588 0.21930188 0.19337934 -0.11949754 0.10343321 0.010970541 -0.04706845 -0.045048576
-0.053315084 0.039957516 0.14979865 0.049942378 0.105074145 0.019238012 0.080169454 0.002800499
0.033904303 -0.015172226 0.008035416 -0.14793326 -0.19411048 0.023770923 0.058405206 -0.0027388663
0.08530774 -0.04982882 -0.200846 -0.13227604 -0.038120713 0.10005288 0.019496035 -0.049824994
-0.08352075 -0.10185563 -0.08175515 0.076577716 0.11985725 0.01914255 0.028115232 -0.07970839
-0.082569376 -0.054659363 -0.016017046 0.0982924 0.035040487 0.016141487 0.01627084 -0.015798464
0.14351906 0.2212562 0.068448685 -0.07291515 -0.06290485 0.025224721 0.051759798 0.0043726075
0.023390196 -0.0739414 -0.05498298 0.064832374 -0.031599324 -0.12586524 -0.01643881 0.08383566
0.031835653 -0.031123921 0.044482946 -0.11272442 -0.0640282 0.025988705 0.038580216 0.090596505
0.005129493 0.039703995 0.013338207 0.036456466 0.06526908 0.04093546 -0.08057237 0.1070549
0.124139346 -0.0144509515 0.0007416068 -0.026872419 0.0088383835 -0.07571067 -0.059322 0.03661237

fc1.bias f4 [86]
00000000: 364e 093d 7b70 ab3b e6d3 823c 4efe 3bbc
00000010: c992 e4bc e796 06ba e087 8cbc 33a6 263d
00000020: f9b8 0a3d c634 41bd a598 84bc 8b8e 46bd
00000030: 46d8 023d bdb2 06bd 503d 34bd bd77 b13c
00000040: 0cea 5f3a a1e8 d3bc 33bc 0c3c 960e aabc
00000050: 34e6 a53c 4c74 aabc bfdd bd3a 2dd2 3fbc
00000060: c3ea e03b ca8a 13bd 583f ba3c a832 a2b9
00000070: 470d b83c a5d1 34bd 9230 dcbc 95e8 4e3d
00000080: f0ab 313c 6c3c 29bd 13ce 8dbc 50f8 c93c
00000090: 0a7b 303d 7dd4 08bc 012c 35bd df4f 3abd
000000a0: a527 0b3d b50f 95bc 6b43 eebc 7a74 cdbc
000000b0: 8cc8 3dbc 29d1 9a3c fd6b fa3c 873d 5e3c
000000c0: 9caa c73c 3a8d 2ebd 84ce f43c fc8c 523d
000000d0: 15f2 35bd c38f 87bc d98a eabc 54c0 22bd
000000e0: 4ccc 0cbd df1c 07bd e60e 173d a98b 383d
000000f0: 7974 34bd c35d 643c bf53 a53c d639 33bd
00000100: 2715 393d ea9d 233d 9345 903c 8e2d 393b
00000110: 564e 173c 6c8f ebbc 94f0 683d eadc dabc
00000120: 8b54 0b39 88ab 1abd fe38 3bbc 217d 093d
00000130: 0b35 843c be46 3bbd 4f68 41bd 4159 9fbc
00000140: 1ef2 a1bc 0941 323d e6ed 963c fa4b 0e3c
00000150: 17ed 61bd 77e0 453c
0.033521853 0.0052319146 0.015970182 -0.011474205 -0.027902024 -0.00051341805 -0.017154634 0.040685844
0.03386781 -0.04716947 -0.016186068 -0.048475783 0.031944536 -0.0328853 -0.044003785 0.021663541
0.00085416506 -0.025867762 0.008589792 -0.020758908 0.020251371 -0.020807408 0.0014485641 -0.011707825
0.0068639233 -0.03602103 0.022735283 -0.0003093679 0.022467269 -0.044145245 -0.026878629 0.050514776
0.010844216 -0.04131739 -0.017310178 0.024654537 0.04308609 -0.008351442 -0.04423142 -0.045486327
0.033973355 -0.018195966 -0.029084882 -0.025079954 -0.011583459 0.018898563 0.030569071 0.013564474
0.024373345 -0.042615153 0.02988363 0.051403984 -0.04442032 -0.016548043 -0.02863066 -0.0397342
-0.03437452 -0.032986518 0.036879443 0.045055065 -0.04405639 0.01393837 0.020181535 -0.04375633
0.045186188 0.03994552 0.0176113 0.0028255912 0.009234985 -0.028754912 0.05687006 -0.026716668
0.00013287568 -0.03776124 -0.011427162 0.033566598 0.016138574 -0.045721762 -0.047218617 -0.01945174
-0.01976877 0.043519054 0.018423986 0.008685106 -0.055157747 0.012077442

bn2.weight f4 [86]
00000000: 56ec 933f 2a9d 993f 2cef 9c3f b1e9 9e3f
00000010: 4ced a43f 896b a23f f980 b23f 3250 923f
00000020: f784 963f 99c4 9e3f aa67 9f3f 443d 823f
00000030: 2245 9e3f dd27 963f b77d 8d3f c986 a23f
00000040: 7fbc a03f 4f28 913f dd2e 9d3f cb11 8b3f
00000050: b6a0 973f d6ff 953f 8cb4 9d3f 067a a03f
00000060: f1c5 983f 07fc 9d3f 43b9 933f d5b2 933f
00000070: e5b1 9f3f c48e 8f3f 3668 873f 879f 903f
00000080: 815a 9d3f aa93 963f 7974 693f 9b22 9a3f
00000090: 2bcc 8b3f a980 ae3f 97f6 853f c844 943f
000000a0: 5b66 903f d242 873f 748a 983f 135f 993f
000000b0: 3677 a53f 7b1d a03f de27 983f eb27 a03f
000000c0: 6201 8b3f a2b0 8c3f f8b3 9c3f 3adc 953f
000000d0: f018 933f 85ab 953f 1e6b 903f 7484 993f
000000e0: 638b a03f e397 5d3f 7cf8 903f bed2 8f3f
000000f0: 6a59 963f 51c7 9e3f 376d 943f f38e 953f
00000100: 7c09 863f 868d 7d3f 54f6 9c3f f546 c03f
00000110: 950e b53f c986 9c3f 6f13 883f 8d8e a53f
00000120: 46c7 923f 693f 8d3f 4baf 983f f5e2 973f
00000130: 4ab2 973f 5d3a 983f b1d6 8f3f 56aa 943f
00000140: f570 a03f 3cfa 903f 7285 6e3f d926 963f
00000150: a050 8c3f 6e08 a83f
1.1556499 1.2001088 1.226049 1.2415067 1.2884917 1.2689067 1.3945609 1.1430724
1.1759328 1.2403747 1.2453511 1.0174947 1.2364848 1.1730915 1.105399 1.2697383
1.2557524 1.1340426 1.2279927 1.0864805 1.184592 1.17187 1.2320724 1.2537239
1.1935407 1.2342538 1.1540912 1.153895 1.2476164 1.1215444 1.0578678 1.1298684
1.2293245 1.1763813 0.9119335 1.2041811 1.0921682 1.3633014 1.0465878 1.158349
1.1281236 1.0567267 1.1917253 1.1982139 1.2927005 1.2508997 1.1887167 1.2512182
1.0859797 1.0991404 1.2242422 1.1707833 1.1491985 1.1692969 1.128269 1.1993546
1.2542537 0.86559886 1.1325831 1.1236188 1.1746037 1.2404577 1.159583 1.168425
1.0471644 0.9904407 1.2262673 1.5021654 1.4145075 1.2228633 1.0630931 1.2934128
1.1467063 1.1034976 1.1928495 1.1866137 1.1851285 1.1892811 1.1237394 1.1614482
1.2534472 1.1326365 0.9317237 1.1730605 1.0962105 1.3127573

bn2.bias f4 [86]
00000000: 13fb 733a f7df 4ebc 7255 bfbd b2b5 953c
00000010: 5f33 edbb 3db1 69bd 0725 863c fb1a f6bd
00000020: a3c5 43bc 2000 c53b 044a cf3b c42c aa3c
00000030: 3e7e 673d 3c29 7bbd 85c5 bf3d 4d22 39bc
00000040: 2705 063e dec8 f43b 48e2 a5bb a213 d53d
00000050: 541d a6bc b38a 84be e055 3b3d 5f8e 8dbc
00000060: 3340 f2bc 1323 64bc 32fc 523d 1edc fa3d
00000070: 8e22 a23d cf9e e23b 263e 0c3d e080 953d
00000080: b5e6 28bd 1034 7cbd 7217 79bd 6c8e f8bd
00000090: 7c9f e63d 1260 663d 3bf1 d03d 797c 653d
000000a0: 3077 bebd c1b5 f63b 77d0 1dbe 79cf 44bd
000000b0: 3ffb 5d3c 10ae cc3c ff98 c43d 0437 61bd
000000c0: 6b97 be3d 74e3 dfbb 2a1c 313c 8774 b53c
000000d0: 9247 8cbd 0112 c1bb 367f 423c c1be ad3d
000000e0: 1892 d1bc a335 4fbd da20 0ebd 0685 a5bc
000000f0: c3a8 16bd a21c 1cbb ca53 933d 006a ae3d
00000100: 124d bb3d a215 5d3d 86c6 aebc ac3b afbd
00000110: 4ef6 123d 94eb 97bc 70de d33b 7475 b3bd
00000120: 9f68 193d e807 8bbc 00dc 103b a465 e9bc
00000130: b1a9 6abd de8b fabb ae2b 2abd 2741 74bd
00000140: 5ec1 06bc 11ca ea3c a58f b83d ca99 ec3d
00000150: 3d49 06be a480 c6bd
0.00093071273 -0.01262664 -0.09342469 0.018275116 -0.00723879 -0.057053793 0.016375078 -0.12016865
-0.011948976 0.006011978 0.006325962 0.020773299 0.05651688 -0.06131862 0.09363846 -0.011299682
0.13087903 0.0074702343 -0.005062375 0.10404135 -0.020277657 -0.2588707 0.045736194 -0.017279802
-0.029571628 -0.013924378 0.051510043 0.12249015 0.07916747 0.006915904 0.034238957 0.072999716
-0.041235644 -0.06157309 -0.060813375 -0.1213654 0.11260888 0.056243964 0.10202261 0.05602691
-0.09300077 0.007528991 -0.15411554 -0.048049424 0.013548671 0.024985343 0.09599494 -0.054984108
0.093062244 -0.0068325344 0.0108099375 0.022150291 -0.068495885 -0.005892039 0.01187115 0.08483649
-0.025582358 -0.05058826 -0.0346993 -0.020205032 -0.036782037 -0.0023820777 0.07193716 0.08516312
0.09145559 0.05397571 -0.021334898 -0.085563034 0.035879426 -0.01854495 0.0064657256 -0.08762637
0.03745329 -0.016971543 0.0022103786 -0.028490849 -0.057290737 -0.007646068 -0.041545562 -0.059632447
-0.008224813 0.028660806 0.09011773 0.115527704 -0.13113876 -0.09692505

fc2.weight f4 [86, 86]
00000000: b439 d53d 0a13 923e 7ec1 133d 213e 4ebd
00000010: a6b5 acbd 3b63 6b3d d785 b3bd 5baa 80bd
00000020: 4bad 51bd b8a9 60bd d524 f93d f6c8 8a3d
00000030: a21d fd3d 4bdf ab3b 4365 93bd ad34 173d
00000040: 2ecf 833c d444 9a3c 7c06 d6bd 85bf e13d
00000050: 631f 943d f3fc 4bbd fed9 1fbe 3b32 633d
00000060: c3cd bf3d b0ef 05bd 2728 debd 2384 dfbc
00000070: 39af 063e 0716 443d fe7e 613c ec8b fabb
00000080: 261e a43c a1ee fc3b 6a27 543d d4d7 aabd
00000090: b3d7 3bbd 6ac0 12bd 0a60 b3bd 25da db3d
000000a0: e30f a83d 23f6 d0bc a9c9 3dbd 8149 0abe
000000b0: 7265 41bd fc3e 51bc 55c0 bebd 6ebe bcbc
000000c0: e25a 8e3b cf21 10bc 44ac 273d 81c1 613d
000000d0: 565a 5ebc 166c e6b8 8263 4abd b380 0d3c
000000e0: 9778 94bb 8bad 473d 67ed db3d e7f4 753d
000000f0: 4dd1 c83b 309e 853d 49bf 0cbd d8d3 9cbd
00000100: 3089 08bc be00 983b a95f 9b3c 5791 bd3d
00000110: 385a 6ebd f721 1cbe 9ebd b9bb 2b6b 06be
00000120: 73a4 e7bd a0e8 3a3d f682 073e 0b3b 9abd
00000130: 33ae 663d 3892 4f3d a3fc 213b 0812 8b3d
00000140: 395a d4bd 74b7 afbd 3299 3cbd f105 43bd
00000150: 2acf 3bbd 17ef 96bd b2a2 b3bc 5997 8abc
00000160: 09c6 cf3d d1d4 70bc 8ece 8dbd cbb1 013d
00000170: bb4c 89bd c41b 83bd d807 f53c eafa 4dbc
00000180: 2d7c fb3b f6b5 d2bc b33d 743e 4832 a43c
00000190: 8446 abbc ae22 543d 7070 1d3c d263 6e3d
000001a0: 29ed 993d c648 e83c 6bd2 a8bd 845c a2bd
000001b0: d079 cebd 30cc 0bbe 4af6 dc3b 24c7 123e
000001c0: b713 dd3b 3e59 26bd 2a43 163d 7de9 99bd
000001d0: 42f3 f23c f9ad a13d 350c aebc b6af b1bd
000001e0: a9ec 943c c406 c1bd 546e 92bc 36ad 5cbd
000001f0: 016b 3f3c 773d 173d 3cd1 8cbd 1c2a 873a
00000200: 7ae8 9f3d 7172 2bbd 308c c33d f3b0 073e
00000210: a4ee b4bc 6a9e 26bd e4c8 1b3d 1071 da3c
00000220: b60b f6bb d7a7 253c de64 6bbd 4e48 01bd
00000230: 0412 323d bc8a 0ebc d0f3 303e f64f 973c
00000240: 9463 4fbc af1d 1cbd 4f9f 103d cff2 513d
00000250: 2a5a 02bd e3b3 1abd e631 2fbd d693 913d
00000260: 66c6 f83c a742 07bd 05a8 433c 6380 52bd
00000270: 62d6 93bd 3c1d 093b f2bc 97bc 6c4e 123c
00000280: 95a7 c63c 3050 d7bd a327 923c 1b8a 00bb
00000290: d1f1 e13c 4f9e 673d e8b6 d33d 749a cd3b
000002a0: feba a33d ee7c b63c 5119 b2bd 79c8 82bd
000002b0: 15e6 a3be 269a fd3d 6b11 46be 69eb c33c
000002c0: e8e6 3a3e fd5f bfbd 156f 90bc 021c 9c3e
000002d0: a232 b43d 52b7 2dbd 794f 1d3d bfd7 a2bd
000002e0: 0029 133e a1c1 dd3c 69dc b5bd 6e92 62be
000002f0: 6bff d23d 2d97 d3bd 7b00 0ebd d24d 633e
00000300: c34c 3dbe 00ee 493d 333c eebd fc56 ab3d
00000310: 2d39 3d3e 9092 16be 0b58 3fbc 2bf0 36bd
00000320: 6a27 2abd 9dc0 243e b0f8 a73d 74f3 27bd
00000330: 625a 833c 2363 42bb 5089 653d dfce f83c
00000340: af20 303e 1f27 48be be55 3fbd a57b 1f3e
00000350: 0d7a 2ebe 6999 f33d 7c68 89bd 377c ff3c
00000360: 53fa 17bd e5cd ea3d 587b 943d 2826 b93d
00000370: 2e34 dfbd 5b52 f2bd e40e 15be 325b 013e
00000380: 9518 1dbe 6ee7 943d 7d81 093e 0031 d8bb
00000390: 97cf c23d 9862 21bd c51c bebc 3ec7 bcbd
000003a0: ffad d93d 0c36 f23d 9607 87bd 0254 53bc
000003b0: 3c0d 733e 39d1 8dbc 6454 1dbd 2c12 723e
000003c0: 2e66 80be b5e3 853d 1bb9 93bd 3ac1 c13e
000003d0: b705 06bc 62c0 c0bd 3deb 9ebd 5a30 0f3d
000003e0: 0d2d 32be 3411 efbd 00c5 6bbc 693e 4dbe
000003f0: 73eb 953d 7b0c 33be b27e 07be e0cd a13d
0.104113966 0.2853015 0.0360732 -0.05035222 -0.08433084 0.05746768 -0.08765762 -0.06282493
-0.051190656 -0.054849356 0.12165228 0.067766115 0.12359168 0.0052451245 -0.071970485 0.03691547
0.016090002 0.018831648 -0.104504555 0.110228576 0.07232549 -0.049801778 -0.15610501 0.055467825
0.09365418 -0.032699287 -0.10847502 -0.027284687 0.1315278 0.04787257 0.013763187 -0.0076460745
0.020033907 0.0077188765 0.0517954 -0.08341947 -0.045860004 -0.03582803 -0.08758552 0.10734967
0.08206155 -0.025507992 -0.046334896 -0.13504602 -0.047215886 -0.012771364 -0.09314028 -0.023040023
0.00434433 -0.008797123 0.04093577 0.05511618 -0.013571342 -0.00010987387 -0.049411304 0.008636641
-0.004530977 0.048749488 0.1073864 0.06004801 0.006128466 0.065243125 -0.03436211 -0.076575935
-0.008333489 0.0046387604 0.018966513 0.09256237 -0.058191508 -0.15247332 -0.005668356 -0.13126819
-0.11310663 0.045632005 0.13233551 -0.07530793 0.056318473 0.050676554 0.0024717234 0.067905486
-0.10368771 -0.08579913 -0.046044536 -0.047613088 -0.045851864 -0.073698215 -0.021928165 -0.016917871
0.10145194 -0.014699177 -0.06924163 0.031663697 -0.06704088 -0.0640178 0.029910967 -0.01257203
0.007674715 -0.025721531 0.23851661 0.020043507 -0.020907648 0.051790886 0.009609327 0.058200665
0.07515938 0.028355014 -0.08243259 -0.07927802 -0.10081828 -0.1365211 0.006743227 0.14333779
0.006746735 -0.04061245 0.036685146 -0.075152375 0.02965701 0.07894511 -0.021246055 -0.08676092
0.018179255 -0.094251186 -0.017874874 -0.053876124 0.011683227 0.03692385 -0.06875846 0.0010312232
0.07808013 -0.041857187 0.09548223 0.13251095 -0.022086449 -0.04067842 0.03803338 0.02666524
-0.0075087203 0.010110817 -0.05746924 -0.031563096 0.043474212 -0.008700069 0.17280507 0.018470746
-0.012658019 -0.038114246 0.03530818 0.05125695 -0.03182427 -0.03776921 -0.042772196 0.071082756
0.030368041 -0.03302255 0.011941914 -0.05139197 -0.07218625 0.0020921966 -0.018522713 0.00892983
0.024249831 -0.105133414 0.017841166 -0.0019613567 0.027581127 0.05654746 0.10337621 0.0062745158
0.0799465 0.022276368 -0.08696235 -0.063858934 -0.32011476 0.12382917 -0.19342582 0.023915963
0.18252146 -0.0934448 -0.017631093 0.30490118 0.0879872 -0.042411156 0.03840587 -0.079513066
0.14371109 0.027069869 -0.088799305 -0.22126171 0.10302623 -0.10331569 -0.034668427 0.22197655
-0.18486314 0.04929924 -0.11632576 0.083662 0.18478842 -0.14704347 -0.011678706 -0.044662636
-0.041541494 0.16089101 0.0820173 -0.04100366 0.016034309 -0.002966114 0.056039155 0.030372081
0.17199968 -0.19546174 -0.04671263 0.1557451 -0.17038746 0.11894495 -0.06709382 0.03118716
-0.037103962 0.114650525 0.072500885 0.09040481 -0.10898624 -0.11832114 -0.14556462 0.12632445
-0.15341409 0.07270704 0.13428302 -0.006597638 0.09512251 -0.039400667 -0.023207078 -0.0921769
0.1062889 0.11826715 -0.06593244 -0.012898447 0.23735517 -0.01731168 -0.03841056 0.23639745
-0.25077957 0.06537572 -0.072130404 0.37842733 -0.008180073 -0.09411694 -0.07759712 0.03495822
-0.17399998 -0.11673203 -0.01439023 -0.20043339 0.07320299 -0.1748523 -0.13231924 0.07900596

fc2.bias f4 [86]
00000000: d510 9f3d b402 a83d bcb6 a0be 4d33 2e3c
00000010: a44c fcbc b3ce d93d fbe4 b13d 902b 88bc
00000020: 6f19 59be 76cb c93c 0a8c f9bd baf0 f23d
00000030: 57fa b53d 905d 34bf d66b c9be cc38 d23d
00000040: 72cb 293e 76bf 223e dad8 84bd 2e25 953d
00000050: 7c9a 54be 2148 873d 34d2 32bf 136f dcbe
00000060: fadf 77bd 0e97 193d efaf de3c 88f2 01bc
00000070: 3239 4d3d 20eb d0bd 9bce 653a bb1e d4be
00000080: f536 023e 0245 7bbd eafa 1abd 9a66 013e
00000090: c8a2 efbd be6a c03c 4851 45bd 8567 c93d
000000a0: 744c b93d 2b40 14be 42b5 013d a222 9abd
000000b0: d348 b3bd 7907 1fbc 1847 013c f8a7 583d
000000c0: c18b 6abb c8a5 ca3c 8bf0 58bd c9bc b63d
000000d0: 6ead 563d 5759 dcbd c92e 1a3d 94fa 05bb
000000e0: e579 15bc 37d4 9cbc 1033 963d f5eb 29bd
000000f0: 46d2 f13d e004 063e e1f5 42bb 1f1d 02be
00000100: e945 c4bc 36b8 ac3c aa7d 393e 5b84 d0be
00000110: e025 603d 59ab 56bc d171 e23d 33a7 23be
00000120: 3d50 223e f724 ff3d 8e11 f03d 0b17 b9bd
00000130: 9006 f3bd c2c5 3f3d 589a 11bd 349f c9bb
00000140: e1e8 83bd 59b8 95bb b8eb ec3d 464a d43d
00000150: f732 dd3d 30ac 103e
0.07766882 0.082036406 -0.31389415 0.010632348 -0.030798264 0.10635128 0.08686253 -0.016622335
-0.21201108 0.02463315 -0.121849135 0.11862321 0.08885639 -0.70455265 -0.39340085 0.102647394
0.16581514 0.15893349 -0.06486674 0.07282482 -0.20762056 0.06605554 -0.69851995 -0.43053493
-0.060516335 0.037497573 0.027183501 -0.007931359 0.050103374 -0.102010965 0.00087664434 -0.41429695
0.12716277 -0.061345108 -0.037836947 0.12636796 -0.1170097 0.023488399 -0.04817322 0.09834198
0.090477854 -0.14477603 0.031667 -0.07526137 -0.087541245 -0.009706371 0.007890485 0.052894562
-0.0035788866 0.024737254 -0.052963775 0.08922727 0.05241149 -0.10759228 0.037642274 -0.0020443546
-0.0091233 -0.01914416 0.07333958 -0.04148479 0.118076846 0.13087797 -0.0029748606 -0.12706421
-0.023959117 0.021083932 0.18114343 -0.4072598 0.05472362 -0.013102376 0.11056865 -0.1598175
0.15850921 0.12458222 0.11722098 -0.09037598 -0.11866486 0.046819456 -0.035547584 -0.0061530117
-0.064409025 -0.004569095 0.11568397 0.10365729 0.108007364 0.14128184

bn3.weight f4 [86]
00000000: 24ed e53f 35a4 d63f 38cc bf3f 3230 bf3f
00000010: 269d a63f 01db e53f 5b76 e73f 18fe bd3f
00000020: a814 bd3f 503c b13f 184f a53f d3d2 eb3f
00000030: 4168 ee3f fee5 be3f 7778 cd3f 7576 de3f
00000040: 49dd da3f 9666 f13f 5fd4 d43f dc69 d73f
00000050: f4f5 a13f 468e cb3f ca2f b13f 87b7 c93f
00000060: 9923 b13f 2e58 d23f b023 b03f 774f c33f
00000070: bfd5 d73f 09a6 983f a40e ef3f de0a b03f
00000080: f31e ce3f dabd c63f fc45 ea3f 6022 fc3f
00000090: 83b0 ab3f 12e3 cf3f 7a59 aa3f 5a1b db3f
000000a0: 1207 e33f 96c2 bb3f 5156 de3f 9eb4 b73f
000000b0: 5b18 b43f 571a c33f 6d52 e13f aee0 c23f
000000c0: c350 cf3f a93c d23f 9497 b93f 4458 fa3f
000000d0: 5182 d63f 6cf2 dd3f 0fa5 e03f d837 dc3f
000000e0: 24c3 b63f 39ed 923f eb6a a93f fea2 ea3f
000000f0: c250 ea3f a64b eb3f 1467 bb3f 0a26 a93f
00000100: 60e7 cf3f 054d ec3f fa16 fe3f bf89 b33f
00000110: bc35 b53f 35c4 b43f dc34 e23f b25b ae3f
00000120: a1fe dc3f 6737 d53f 2354 de3f 9335 b13f
00000130: 12b0 c53f edd4 fb3f 55e0 bb3f 6665 b73f
00000140: c80e cd3f bad1 e43f 1fd2 0340 51d4 ef3f
00000150: b250 ce3f 53c2 ed3f
1.7962995 1.6768862 1.4984198 1.4936583 1.3016708 1.795746 1.8082994 1.4843168
1.4771929 1.3846531 1.2914762 1.8423713 1.8625566 1.4913938 1.6052388 1.73799
1.7098781 1.8859432 1.662731 1.6829181 1.2653184 1.5902793 1.3842709 1.5759133
1.3838989 1.643316 1.3760891 1.5258626 1.6862105 1.192567 1.8676343 1.3753316
1.6103195 1.5526688 1.8302608 1.969799 1.3413242 1.6241171 1.3308556 1.7117722
1.7736533 1.4668758 1.7370092 1.4351995 1.4069933 1.5242413 1.7603279 1.5224817
1.6196522 1.6424762 1.4499383 1.9558187 1.675852 1.7339606 1.7550372 1.7204542
1.4278302 1.1478645 1.3235754 1.8330991 1.8305895 1.8382461 1.4640832 1.3214734
1.6242485 1.8461004 1.9850762 1.4026412 1.4157023 1.4122378 1.7672381 1.3621733
1.7265207 1.6657532 1.7369426 1.3844475 1.5444357 1.9674355 1.4677836 1.4327819
1.6020136 1.7876503 2.0596998 1.8736669 1.6118376 1.8574928

bn3.bias f4 [86]
00000000: ed0a 013e 2c70 2e3d 0d0a c73c 6806 603e
00000010: 4fe0 55bd c294 013d 59c6 8f3d 91c9 77ba
00000020: 9d48 8bbd e5ba 3d3d 5569 c13c 2c92 f93c
00000030: 2521 47bd 6c68 febc 8f10 a83d 00ab 05be
00000040: 27a5 95bd b27c 433d ee69 cabd bad8 243e
00000050: df0f d93c 2856 79bc f5fc 4c3e 61dd dc3d
00000060: 8e3a dabd 323e 8a3a 4ac8 b03d 5aba f83d
00000070: 9c59 9cbd b83f 3f3e 71fc fabd aff0 b93d
00000080: 1449 9abd b002 f8bc aa56 3f3e 8b5b aa3c
00000090: a56d 563d 9e5a 143b e609 76bd 0e78 f43d
000000a0: e7b7 2abd e4b1 8939 82bf febd 70c9 933c
000000b0: 7381 b9bc f94e 583d b8f3 983d bcbf ac3d
000000c0: 248e d13c 7fe1 ed3c f121 08be a67b 0cbd
000000d0: f6d9 cdbd 1572 193b 23d7 c3bd a097 6fbd
000000e0: 723e 2cbc 0306 bdbd d2ce c9bc 9ad9 8cbd
000000f0: aed1 473e 5a54 6c3d 7619 efbd 94dc bb3c
00000100: 5c0c 8fbd 8473 6bbd beb1 883a 003f 1c3e
00000110: 098b 0ebd b307 f93c df31 46bd 1604 1abd
00000120: 68bd 5f3e fe8c 313e d354 863d f8a9 35bd
00000130: 4837 b3bd 9453 17be f798 74be 9c3f dbbc
00000140: b234 72bd 0777 7cbd b3f5 17bd bcd8 88bc
00000150: ef82 a4bc 0f11 483e
0.12601824 0.042587444 0.024296785 0.21877444 -0.05221587 0.031636007 0.07020254 -0.0009452338
-0.06800959 0.046320815 0.023609797 0.030465208 -0.048615593 -0.031055652 0.08206283 -0.13053513
-0.07306891 0.04772634 -0.09883486 0.160983 0.026496826 -0.015218295 0.2001837 0.10784412
-0.106557 0.00105471 0.08631952 0.12144919 -0.07634279 0.1867665 -0.122551806 0.0907911
-0.0753347 -0.030274719 0.18685403 0.020795604 0.05235066 0.002263702 -0.060068034 0.11936961
-0.04167929 0.00026263215 -0.12438871 0.018040389 -0.022644734 0.05280969 0.07468361 0.08435008
0.025580473 0.029038189 -0.13294198 -0.034297608 -0.100513384 0.0023413945 -0.095625184 -0.05849421
-0.010512935 -0.09229662 -0.024634752 -0.06877442 0.1951358 0.05769763 -0.11674778 0.022932328
-0.06984779 -0.05748321 0.0010428948 0.15258408 -0.034800563 0.03039918 -0.048387405 -0.037601553
0.21849597 0.1733894 0.06559148 -0.044351548 -0.087507784 -0.14777976 -0.23886476 -0.02676373
-0.059132285 -0.06163695 -0.03709955 -0.01670491 -0.020081965 0.19537757

fc3.weight f4 [86, 86]
00000000: 5b91 7b3d f102 dbbd b84b 983d 1760 2d3d
00000010: f743 503c 317d 34bd cfaf db3d 1c8b d63c
00000020: e06a 363d 90aa c33d 98ed d23c ac2f 75be
00000030: dbb8 523d b43a d3bd 916f 753d 4142 9bbb
00000040: 7a17 c0be 00ad 6e3d 41a2 9abe 2687 fc3c
00000050: 0807 1f3d 113e 543d 6325 603d be02 963d
00000060: 1fd4 1a3d a671 c7bd 6640 553d c381 e43d
00000070: 3ead 173d 9b87 a43d c351 543d c076 eebd
00000080: 93c2 073d 4469 303d 2c38 8e3d dd30 f3bc
00000090: 05ad 563c e6f3 ef3c f5b8 543d ff6a 7b3d
000000a0: 1e26 623c 88a8 833d f1b2 223d 1ace c43c
000000b0: dd46 b23d 24a4 8ebc 1596 4f3d e06e 213d
000000c0: 2935 d23d 971b 8bbe f08b babb 42b9 e33c
000000d0: 95d6 b83c 94f8 163d 3fce d7be 3728 4fbe
000000e0: 619e 70be 354d 133c 7260 493c 889b 86be
000000f0: 5ed8 8c3d 1ee6 a53d fa50 f73c fb34 643d
00000100: 0eda 633d 3964 6a3d bf5f 893d ad1b b6bc
00000110: 93c9 223d 8f0f 003c 3c43 893c c5cf bf3b
00000120: 02bb 0f3e c331 883d 74a7 a73d d4e9 6c3d
00000130: 3745 933d 6cfd df3c ccb6 b5bc 9548 acbd
00000140: 1061 e13c 0192 babe b90d 73bd c1b4 4e3d
00000150: ce41 d13d 0ab6 863d 74c4 153d b7c0 ac3b
00000160: ae02 953d 1156 05bb 02fd ec3c e783 c43d
00000170: 8110 c83d 89a3 5f3d c7b4 903d 26af 443d
00000180: c5f7 183d 8553 d5be eeff 953d d31c 0a3d
00000190: 93b3 123d 7ae6 213d 7e26 64be 1b61 d53d
000001a0: cdb0 e0bc 469f 883c 1660 623d 4a47 403e
000001b0: 0820 9ebd a1d0 86bb 91e6 9c3d 2769 da3d
000001c0: a944 603d 20eb 063d 6ea6 543d 8c2d a2bc
000001d0: c82b ad3d 0a39 40be 9748 dd3c 0a9a 523d
000001e0: 9ef2 853d 83be 85bd 81e8 103e 9753 2f3d
000001f0: 673a 2b3d 1f51 4b3e 11f8 9d3d 598e b23d
00000200: 4aaf 913d 5d65 2dbe 77a1 823d 98a2 28be
00000210: 1ba1 063c d1e1 9b3d 161b b53d 838e 58be
00000220: d193 6b3d 4034 bf3c 61da b43d e7a4 803d
00000230: 39c6 4ebe d1d3 85be 53b0 93be 12bf 853d
00000240: d1fc f73c 4148 dcbe d8bd d63d eb49 d4bc
00000250: 1a07 a53d 3165 133c 6503 ae3d 1fc9 903c
00000260: 9dce 843d 3b6d 9fbe f14e e43a 5aa0 3d3d
00000270: 22d9 8a3d 4e00 f93c d1a0 82be 08e7 63be
00000280: a9c0 023c 0f54 803d c0da 7a3c ada0 97b9
00000290: 339d 993d bcf6 80be 5444 abbc 7ca4 3dbe
000002a0: 52b9 883d b4df 3bbd a2cf 0e3d 1c29 5c3d
000002b0: 66e1 1dbc a41c f13d 1bd8 51bd 619d a33d
000002c0: df7d 153c 2ceb 443d 3897 a93c e2c8 aa3d
000002d0: 57b1 9a3c a8db 64bd d9be dc3d 1cc6 41be
000002e0: 8531 2b3d 94c0 b73d 750d 173d 2da6 a03d
000002f0: cc2a 043e 27c2 113c 7c45 d83d f9dd d93d
00000300: 1cae 433c ec8c c73c 4ce7 30be 91f5 c438
00000310: d6c8 6c3d 8bec 363e b644 333d 2079 0a3d
00000320: c1cc 8a3d 76d1 97be 0b0e be3d 6d39 6cbe
00000330: af18 343d 6f41 9d3d c20a 1b3d a3b0 c63d
00000340: d575 e73d b573 0abb f1da 1bbd 035a 02bd
00000350: e9ba 533c bba7 1a3c 3c86 7c3d 8732 39be
00000360: 549f f4bd a878 11bf 9e87 dc3c 9c9c 003d
00000370: 260f df38 150f e4bc 1a6e 933d 56fd c33c
00000380: 60bf 763d 765d 713d a7f2 34bb d6e2 60be
00000390: abc3 74be f30c 9f3d 2672 5c3d 6fce d0be
000003a0: b079 f23b 3017 193d e08d 843d 795a fe3c
000003b0: 1fa9 333d c497 aa3d 7e2a af3d b2c9 b5be
000003c0: 19cb 273d 0836 d63d 611b cd3d 9494 dc3d
000003d0: d1dc 05bf dc4f 8dbe b11d 57bc 2229 863d
000003e0: 99a6 25bc 5e54 e63c a436 9d3c 373e ffbd
000003f0: a227 9c3d b3bb 6b3c 6f4e 1f3d 89fa 01bd
0.06141792 -0.106939204 0.07436317 0.042327967 0.012711517 -0.044064704 0.10726892 0.02618938
0.044535518 0.095540166 0.02574806 -0.23943967 0.051445823 -0.10313931 0.05992085 -0.0047381227
-0.3751791 0.058270454 -0.30201915 0.030826163 0.038825065 0.051817004 0.054723155 0.07324742
0.03779995 -0.097384736 0.05206337 0.111575626 0.03703045 0.08033677 0.051835787 -0.116437435
0.033144545 0.04306914 0.06944308 -0.029686386 0.0131027745 0.029291105 0.0519342 0.061381336
0.013803033 0.06428629 0.039721433 0.024024058 0.08704922 -0.017412253 0.05068024 0.03941238
0.10264046 -0.27169487 -0.0056929514 0.027798299 0.022563258 0.036858156 -0.4214954 -0.20230184
-0.23497917 0.008990576 0.012291061 -0.26290536 0.06877206 0.08100532 0.03018998 0.05571459
0.055627875 0.057224486 0.06707715 -0.022229994 0.039743017 0.007816209 0.016755693 0.0058536255
0.14036182 0.06650116 0.08186236 0.057840183 0.07190936 0.02734252 -0.02218189 -0.084122814
0.027512103 -0.36439517 -0.05933926 0.05046535 0.102176294 0.0657769 0.036564305 0.005271997
0.07275902 -0.002034549 0.028929237 0.09595471 0.09768773 0.05459932 0.070657305 0.048018597
0.037345666 -0.41665283 0.07324205 0.033718895 0.035815787 0.03952644 -0.22280309 0.10418912
-0.027428055 0.01667751 0.055267416 0.18777195 -0.07720953 -0.004114226 0.076611646 0.106645875
0.05475298 0.032939076 0.051916532 -0.019797109 0.08455616 -0.18771759 0.027012153 0.051416434
0.06540416 -0.06530478 0.14151193 0.042804327 0.041803744 0.19855164 0.077133305 0.08718557
0.07113512 -0.16933198 0.06378453 -0.16468275 0.0082171215 0.076114304 0.08843057 -0.21148114
0.057514016 0.023340344 0.08830715 0.062814526 -0.20192803 -0.26138166 -0.28845462 0.065305844
0.03027192 -0.43023875 0.104854286 -0.025914153 0.08057995 0.008996294 0.08496741 0.017674027
0.06484721 -0.31138024 0.0017418546 0.0462955 0.06779696 0.030395653 -0.25513318 -0.222561
0.007980504 0.06266033 0.015310943 -0.00028920677 0.075006865 -0.25188243 -0.020906605 -0.18519777
0.06675972 -0.045867637 0.034865983 0.053750142 -0.009636259 0.11773041 -0.051231485 0.07989002
0.009124248 0.04807584 0.02070199 0.083390966 0.01888339 -0.055873543 0.10778589 -0.18923229
0.041795272 0.08972278 0.036878068 0.078441955 0.1290695 0.008896387 0.10560128 0.10638041
0.011943366 0.024359189 -0.17275733 9.3917486e-05 0.05780872 0.17863671 0.0437667 0.03380692
0.06777335 -0.29651994 0.09280022 -0.23068781 0.043968853 0.07678496 0.037852056 0.097016595
0.113017716 -0.0021126096 -0.038050596 -0.031824123 0.012922981 0.009439404 0.061651453 -0.18085681
-0.11944452 -0.5682473 0.026920136 0.031399354 0.0001063629 -0.027839223 0.071987346 0.02392451
0.060241103 0.058927022 -0.0027610452 -0.21961531 -0.23902766 0.07766142 0.053819798 -0.40782496
0.00739976 0.03737563 0.06472373 0.031049 0.04386246 0.08329728 0.085530266 -0.35505444
0.040965173 0.104595244 0.10014988 0.107705265 -0.52290064 -0.2759999 -0.013129638 0.06550814
-0.010110521 0.028116401 0.019191094 -0.124630384 0.07624747 0.014388013 0.03889316 -0.03173307
